<?xml version="1.0" ?>
<net batch="1" name="frozen_model" version="6">
	<layers>
		<layer id="0" name="conv2d_2_input" precision="FP32" type="Input">
			<output>
				<port id="0">
					<dim>1</dim>
					<dim>1</dim>
					<dim>100</dim>
					<dim>100</dim>
				</port>
			</output>
		</layer>
		<layer id="1" name="conv2d_2/Conv2D" precision="FP32" type="Convolution">
			<data auto_pad="valid" dilations="1,1" group="1" kernel="3,3" output="64" pads_begin="0,0" pads_end="0,0" strides="1,1"/>
			<input>
				<port id="0">
					<dim>1</dim>
					<dim>1</dim>
					<dim>100</dim>
					<dim>100</dim>
				</port>
			</input>
			<output>
				<port id="3">
					<dim>1</dim>
					<dim>64</dim>
					<dim>98</dim>
					<dim>98</dim>
				</port>
			</output>
			<blobs>
				<weights offset="0" size="2304"/>
				<biases offset="2304" size="256"/>
			</blobs>
		</layer>
		<layer id="2" name="conv2d_2/Relu" precision="FP32" type="ReLU">
			<input>
				<port id="0">
					<dim>1</dim>
					<dim>64</dim>
					<dim>98</dim>
					<dim>98</dim>
				</port>
			</input>
			<output>
				<port id="1">
					<dim>1</dim>
					<dim>64</dim>
					<dim>98</dim>
					<dim>98</dim>
				</port>
			</output>
		</layer>
		<layer id="3" name="max_pooling2d_2/MaxPool" precision="FP32" type="Pooling">
			<data auto_pad="valid" exclude-pad="true" kernel="2,2" pads_begin="0,0" pads_end="0,0" pool-method="max" strides="2,2"/>
			<input>
				<port id="0">
					<dim>1</dim>
					<dim>64</dim>
					<dim>98</dim>
					<dim>98</dim>
				</port>
			</input>
			<output>
				<port id="1">
					<dim>1</dim>
					<dim>64</dim>
					<dim>49</dim>
					<dim>49</dim>
				</port>
			</output>
		</layer>
		<layer id="4" name="conv2d_3/Conv2D" precision="FP32" type="Convolution">
			<data auto_pad="valid" dilations="1,1" group="1" kernel="3,3" output="128" pads_begin="0,0" pads_end="0,0" strides="1,1"/>
			<input>
				<port id="0">
					<dim>1</dim>
					<dim>64</dim>
					<dim>49</dim>
					<dim>49</dim>
				</port>
			</input>
			<output>
				<port id="3">
					<dim>1</dim>
					<dim>128</dim>
					<dim>47</dim>
					<dim>47</dim>
				</port>
			</output>
			<blobs>
				<weights offset="2560" size="294912"/>
				<biases offset="297472" size="512"/>
			</blobs>
		</layer>
		<layer id="5" name="conv2d_3/Relu" precision="FP32" type="ReLU">
			<input>
				<port id="0">
					<dim>1</dim>
					<dim>128</dim>
					<dim>47</dim>
					<dim>47</dim>
				</port>
			</input>
			<output>
				<port id="1">
					<dim>1</dim>
					<dim>128</dim>
					<dim>47</dim>
					<dim>47</dim>
				</port>
			</output>
		</layer>
		<layer id="6" name="max_pooling2d_3/MaxPool" precision="FP32" type="Pooling">
			<data auto_pad="valid" exclude-pad="true" kernel="2,2" pads_begin="0,0" pads_end="0,0" pool-method="max" strides="2,2"/>
			<input>
				<port id="0">
					<dim>1</dim>
					<dim>128</dim>
					<dim>47</dim>
					<dim>47</dim>
				</port>
			</input>
			<output>
				<port id="1">
					<dim>1</dim>
					<dim>128</dim>
					<dim>23</dim>
					<dim>23</dim>
				</port>
			</output>
		</layer>
		<layer id="7" name="max_pooling2d_3/MaxPool/Transpose" precision="FP32" type="Permute">
			<data order="0,2,3,1"/>
			<input>
				<port id="0">
					<dim>1</dim>
					<dim>128</dim>
					<dim>23</dim>
					<dim>23</dim>
				</port>
			</input>
			<output>
				<port id="1">
					<dim>1</dim>
					<dim>23</dim>
					<dim>23</dim>
					<dim>128</dim>
				</port>
			</output>
		</layer>
		<layer id="8" name="34/Output_0/Data__const" precision="I32" type="Const">
			<output>
				<port id="1">
					<dim>2</dim>
				</port>
			</output>
			<blobs>
				<custom offset="297984" size="8"/>
			</blobs>
		</layer>
		<layer id="9" name="flatten_1/Reshape" precision="FP32" type="Reshape">
			<input>
				<port id="0">
					<dim>1</dim>
					<dim>23</dim>
					<dim>23</dim>
					<dim>128</dim>
				</port>
				<port id="1">
					<dim>2</dim>
				</port>
			</input>
			<output>
				<port id="2">
					<dim>1</dim>
					<dim>67712</dim>
				</port>
			</output>
		</layer>
		<layer id="10" name="dense_1/MatMul" precision="FP32" type="FullyConnected">
			<data out-size="40"/>
			<input>
				<port id="0">
					<dim>1</dim>
					<dim>67712</dim>
				</port>
			</input>
			<output>
				<port id="3">
					<dim>1</dim>
					<dim>40</dim>
				</port>
			</output>
			<blobs>
				<weights offset="297992" size="10833920"/>
				<biases offset="11131912" size="160"/>
			</blobs>
		</layer>
		<layer id="11" name="dense_1/Softmax" precision="FP32" type="SoftMax">
			<data axis="1"/>
			<input>
				<port id="0">
					<dim>1</dim>
					<dim>40</dim>
				</port>
			</input>
			<output>
				<port id="1">
					<dim>1</dim>
					<dim>40</dim>
				</port>
			</output>
		</layer>
	</layers>
	<edges>
		<edge from-layer="0" from-port="0" to-layer="1" to-port="0"/>
		<edge from-layer="1" from-port="3" to-layer="2" to-port="0"/>
		<edge from-layer="2" from-port="1" to-layer="3" to-port="0"/>
		<edge from-layer="3" from-port="1" to-layer="4" to-port="0"/>
		<edge from-layer="4" from-port="3" to-layer="5" to-port="0"/>
		<edge from-layer="5" from-port="1" to-layer="6" to-port="0"/>
		<edge from-layer="6" from-port="1" to-layer="7" to-port="0"/>
		<edge from-layer="7" from-port="1" to-layer="9" to-port="0"/>
		<edge from-layer="8" from-port="1" to-layer="9" to-port="1"/>
		<edge from-layer="9" from-port="2" to-layer="10" to-port="0"/>
		<edge from-layer="10" from-port="3" to-layer="11" to-port="0"/>
	</edges>
	<meta_data>
		<MO_version value="2019.3.0-408-gac8584cb7"/>
		<cli_parameters>
			<blobs_as_inputs value="False"/>
			<data_type value="FP32"/>
			<disable_nhwc_to_nchw value="False"/>
			<disable_resnet_optimization value="False"/>
			<enable_concat_optimization value="False"/>
			<extensions value="DIR"/>
			<framework value="tf"/>
			<freeze_placeholder_with_value value="{}"/>
			<generate_experimental_IR_V10 value="False"/>
			<input_model value="DIR\frozen_model.pb"/>
			<input_model_is_text value="False"/>
			<input_shape value="[1,100,100,1]"/>
			<keep_quantize_ops_in_IR value="False"/>
			<keep_shape_ops value="False"/>
			<log_level value="ERROR"/>
			<mean_scale_values value="{}"/>
			<mean_values value="()"/>
			<move_to_preprocess value="False"/>
			<output_dir value="DIR"/>
			<placeholder_shapes value="[  1 100 100   1]"/>
			<reverse_input_channels value="False"/>
			<scale_values value="()"/>
			<silent value="False"/>
			<steps value="False"/>
			<version value="False"/>
			<unset unset_cli_parameters="batch, disable_fusing, disable_gfusing, finegrain_fusing, generate_deprecated_IR_V2, input, input_checkpoint, input_meta_graph, model_name, output, saved_model_dir, saved_model_tags, scale, tensorboard_logdir, tensorflow_custom_layer_libraries, tensorflow_custom_operations_config_update, tensorflow_object_detection_api_pipeline_config, tensorflow_operation_patterns, tensorflow_subgraph_patterns, tensorflow_use_custom_operations_config"/>
		</cli_parameters>
	</meta_data>
</net>
